three_D_reconstruction/Calibration/calibration_parameters_Horst_undistorted_24_08.npz (npz, 718 bytes, 2 tensors)

camera_matrix f8 [3, 3]
00000000: 79b7 3de7 3c1d a440 0000 0000 0000 0000
00000010: 7201 5958 b0db 9140 0000 0000 0000 0000
00000020: dc46 4621 1118 a440 fcad 46ff d785 9240
00000030: 0000 0000 0000 0000 0000 0000 0000 0000
00000040: 0000 0000 0000 f03f
2574.6189517294374 0.0 1142.9222120196468 0.0 2572.033456989431 1185.4609347385112 0.0 0.0
1.0

dist_coeffs f8 [14, 1]
00000000: 17aa cd8f 47c1 29c0 dedd ce47 908a 4740
00000010: f2d0 a8e1 2ffd 593f 7fad a372 b922 68bf
00000020: 5b82 c135 67c8 3ec0 e823 5017 f7c0 29c0
00000030: f349 c8dd 2d89 4740 c8f4 4914 63bd 3ec0
00000040: 0000 0000 0000 0000 0000 0000 0000 0000
00000050: 0000 0000 0000 0000 0000 0000 0000 0000
00000060: 0000 0000 0000 0000 0000 0000 0000 0000
-12.877499097686309 47.08252809143936 0.0015862433998679562 -0.0029462453868426826 -30.782824859374482 -12.876885155232188 47.071712229535386 -30.739793079429347
0.0 0.0 0.0 0.0 0.0 0.0
